node {
  name: "in_0"
  op: "Const"
  attr {
    key: "dtype"
    value {
      type: DT_FLOAT
    }
  }
  attr {
    key: "value"
    value {
      tensor {
        dtype: DT_FLOAT
        tensor_shape {
          dim {
            size: 1
          }
          dim {
            size: 4
          }
          dim {
            size: 5
          }
        }
        tensor_content: "…"
      }
    }
  }
}
node {
  name: "in_0/read"
  op: "Identity"
  input: "in_0"
  attr {
    key: "T"
    value {
      type: DT_FLOAT
    }
  }
  attr {
    key: "_class"
    value {
      list {
        s: "loc:@in_0"
      }
    }
  }
}
node {
  name: "in_1"
  op: "Const"
  attr {
    key: "dtype"
    value {
      type: DT_FLOAT
    }
  }
  attr {
    key: "value"
    value {
      tensor {
        dtype: DT_FLOAT
        tensor_shape {
          dim {
            size: 1
          }
          dim {
            size: 3
          }
        }
        tensor_content: "\006\220E?\202\226m?\346\013|?"
      }
    }
  }
}
node {
  name: "in_1/read"
  op: "Identity"
  input: "in_1"
  attr {
    key: "T"
    value {
      type: DT_FLOAT
    }
  }
  attr {
    key: "_class"
    value {
      list {
        s: "loc:@in_1"
      }
    }
  }
}
node {
  name: "in_2"
  op: "Const"
  attr {
    key: "dtype"
    value {
      type: DT_FLOAT
    }
  }
  attr {
    key: "value"
    value {
      tensor {
        dtype: DT_FLOAT
        tensor_shape {
          dim {
            size: 1
          }
          dim {
            size: 3
          }
        }
        tensor_content: "\270\263q?\342~\030?\026\355]?"
      }
    }
  }
}
node {
  name: "in_2/read"
  op: "Identity"
  input: "in_2"
  attr {
    key: "T"
    value {
      type: DT_FLOAT
    }
  }
  attr {
    key: "_class"
    value {
      list {
        s: "loc:@in_2"
      }
    }
  }
}
node {
  name: "unstack"
  op: "Unpack"
  input: "in_0/read"
  attr {
    key: "T"
    value {
      type: DT_FLOAT
    }
  }
  attr {
    key: "axis"
    value {
      i: 1
    }
  }
  attr {
    key: "num"
    value {
      i: 4
    }
  }
}
node {
  name: "rnn/lstm_cell/kernel"
  op: "Const"
  attr {
    key: "dtype"
    value {
      type: DT_FLOAT
    }
  }
  attr {
    key: "value"
    value {
      tensor {
        dtype: DT_FLOAT
        tensor_shape {
          dim {
            size: 8
          }
          dim {
            size: 12
          }
        }
        tensor_content: "…"
      }
    }
  }
}
node {
  name: "rnn/lstm_cell/kernel/read"
  op: "Identity"
  input: "rnn/lstm_cell/kernel"
  attr {
    key: "T"
    value {
      type: DT_FLOAT
    }
  }
}
node {
  name: "rnn/lstm_cell/bias"
  op: "Const"
  attr {
    key: "dtype"
    value {
      type: DT_FLOAT
    }
  }
  attr {
    key: "value"
    value {
      tensor {
        dtype: DT_FLOAT
        tensor_shape {
          dim {
            size: 12
          }
        }
        tensor_content: "…"
      }
    }
  }
}
node {
  name: "rnn/lstm_cell/bias/read"
  op: "Identity"
  input: "rnn/lstm_cell/bias"
  attr {
    key: "T"
    value {
      type: DT_FLOAT
    }
  }
}
node {
  name: "rnn/lstm_cell/concat/axis"
  op: "Const"
  attr {
    key: "dtype"
    value {
      type: DT_INT32
    }
  }
  attr {
    key: "value"
    value {
      tensor {
        dtype: DT_INT32
        tensor_shape {
        }
        int_val: 1
      }
    }
  }
}
node {
  name: "rnn/lstm_cell/concat"
  op: "ConcatV2"
  input: "unstack"
  input: "in_2/read"
  input: "rnn/lstm_cell/concat/axis"
  attr {
    key: "N"
    value {
      i: 2
    }
  }
  attr {
    key: "T"
    value {
      type: DT_FLOAT
    }
  }
  attr {
    key: "Tidx"
    value {
      type: DT_INT32
    }
  }
}
node {
  name: "rnn/lstm_cell/MatMul"
  op: "MatMul"
  input: "rnn/lstm_cell/concat"
  input: "rnn/lstm_cell/kernel/read"
  attr {
    key: "T"
    value {
      type: DT_FLOAT
    }
  }
  attr {
    key: "transpose_a"
    value {
      b: false
    }
  }
  attr {
    key: "transpose_b"
    value {
      b: false
    }
  }
}
node {
  name: "rnn/lstm_cell/BiasAdd"
  op: "BiasAdd"
  input: "rnn/lstm_cell/MatMul"
  input: "rnn/lstm_cell/bias/read"
  attr {
    key: "T"
    value {
      type: DT_FLOAT
    }
  }
  attr {
    key: "data_format"
    value {
      s: "NHWC"
    }
  }
}
node {
  name: "rnn/lstm_cell/split/split_dim"
  op: "Const"
  attr {
    key: "dtype"
    value {
      type: DT_INT32
    }
  }
  attr {
    key: "value"
    value {
      tensor {
        dtype: DT_INT32
        tensor_shape {
        }
        int_val: 1
      }
    }
  }
}
node {
  name: "rnn/lstm_cell/split"
  op: "Split"
  input: "rnn/lstm_cell/split/split_dim"
  input: "rnn/lstm_cell/BiasAdd"
  attr {
    key: "T"
    value {
      type: DT_FLOAT
    }
  }
  attr {
    key: "num_split"
    value {
      i: 4
    }
  }
}
node {
  name: "rnn/lstm_cell/add/y"
  op: "Const"
  attr {
    key: "dtype"
    value {
      type: DT_FLOAT
    }
  }
  attr {
    key: "value"
    value {
      tensor {
        dtype: DT_FLOAT
        tensor_shape {
        }
        float_val: 1.0
      }
    }
  }
}
node {
  name: "rnn/lstm_cell/add"
  op: "Add"
  input: "rnn/lstm_cell/split:2"
  input: "rnn/lstm_cell/add/y"
  attr {
    key: "T"
    value {
      type: DT_FLOAT
    }
  }
}
node {
  name: "rnn/lstm_cell/Sigmoid"
  op: "Sigmoid"
  input: "rnn/lstm_cell/add"
  attr {
    key: "T"
    value {
      type: DT_FLOAT
    }
  }
}
node {
  name: "rnn/lstm_cell/mul"
  op: "Mul"
  input: "rnn/lstm_cell/Sigmoid"
  input: "in_1/read"
  attr {
    key: "T"
    value {
      type: DT_FLOAT
    }
  }
}
node {
  name: "rnn/lstm_cell/Sigmoid_1"
  op: "Sigmoid"
  input: "rnn/lstm_cell/split"
  attr {
    key: "T"
    value {
      type: DT_FLOAT
    }
  }
}
node {
  name: "rnn/lstm_cell/Softsign"
  op: "Softsign"
  input: "rnn/lstm_cell/split:1"
  attr {
    key: "T"
    value {
      type: DT_FLOAT
    }
  }
}
node {
  name: "rnn/lstm_cell/mul_1"
  op: "Mul"
  input: "rnn/lstm_cell/Sigmoid_1"
  input: "rnn/lstm_cell/Softsign"
  attr {
    key: "T"
    value {
      type: DT_FLOAT
    }
  }
}
node {
  name: "rnn/lstm_cell/add_1"
  op: "Add"
  input: "rnn/lstm_cell/mul"
  input: "rnn/lstm_cell/mul_1"
  attr {
    key: "T"
    value {
      type: DT_FLOAT
    }
  }
}
node {
  name: "rnn/lstm_cell/Sigmoid_2"
  op: "Sigmoid"
  input: "rnn/lstm_cell/split:3"
  attr {
    key: "T"
    value {
      type: DT_FLOAT
    }
  }
}
node {
  name: "rnn/lstm_cell/Softsign_1"
  op: "Softsign"
  input: "rnn/lstm_cell/add_1"
  attr {
    key: "T"
    value {
      type: DT_FLOAT
    }
  }
}
node {
  name: "rnn/lstm_cell/mul_2"
  op: "Mul"
  input: "rnn/lstm_cell/Sigmoid_2"
  input: "rnn/lstm_cell/Softsign_1"
  attr {
    key: "T"
    value {
      type: DT_FLOAT
    }
  }
}
node {
  name: "rnn/lstm_cell/concat_1/axis"
  op: "Const"
  attr {
    key: "dtype"
    value {
      type: DT_INT32
    }
  }
  attr {
    key: "value"
    value {
      tensor {
        dtype: DT_INT32
        tensor_shape {
        }
        int_val: 1
      }
    }
  }
}
node {
  name: "rnn/lstm_cell/concat_1"
  op: "ConcatV2"
  input: "unstack:1"
  input: "rnn/lstm_cell/mul_2"
  input: "rnn/lstm_cell/concat_1/axis"
  attr {
    key: "N"
    value {
      i: 2
    }
  }
  attr {
    key: "T"
    value {
      type: DT_FLOAT
    }
  }
  attr {
    key: "Tidx"
    value {
      type: DT_INT32
    }
  }
}
node {
  name: "rnn/lstm_cell/MatMul_1"
  op: "MatMul"
  input: "rnn/lstm_cell/concat_1"
  input: "rnn/lstm_cell/kernel/read"
  attr {
    key: "T"
    value {
      type: DT_FLOAT
    }
  }
  attr {
    key: "transpose_a"
    value {
      b: false
    }
  }
  attr {
    key: "transpose_b"
    value {
      b: false
    }
  }
}
node {
  name: "rnn/lstm_cell/BiasAdd_1"
  op: "BiasAdd"
  input: "rnn/lstm_cell/MatMul_1"
  input: "rnn/lstm_cell/bias/read"
  attr {
    key: "T"
    value {
      type: DT_FLOAT
    }
  }
  attr {
    key: "data_format"
    value {
      s: "NHWC"
    }
  }
}
node {
  name: "rnn/lstm_cell/split_1/split_dim"
  op: "Const"
  attr {
    key: "dtype"
    value {
      type: DT_INT32
    }
  }
  attr {
    key: "value"
    value {
      tensor {
        dtype: DT_INT32
        tensor_shape {
        }
        int_val: 1
      }
    }
  }
}
node {
  name: "rnn/lstm_cell/split_1"
  op: "Split"
  input: "rnn/lstm_cell/split_1/split_dim"
  input: "rnn/lstm_cell/BiasAdd_1"
  attr {
    key: "T"
    value {
      type: DT_FLOAT
    }
  }
  attr {
    key: "num_split"
    value {
      i: 4
    }
  }
}
node {
  name: "rnn/lstm_cell/add_2/y"
  op: "Const"
  attr {
    key: "dtype"
    value {
      type: DT_FLOAT
    }
  }
  attr {
    key: "value"
    value {
      tensor {
        dtype: DT_FLOAT
        tensor_shape {
        }
        float_val: 1.0
      }
    }
  }
}
node {
  name: "rnn/lstm_cell/add_2"
  op: "Add"
  input: "rnn/lstm_cell/split_1:2"
  input: "rnn/lstm_cell/add_2/y"
  attr {
    key: "T"
    value {
      type: DT_FLOAT
    }
  }
}
node {
  name: "rnn/lstm_cell/Sigmoid_3"
  op: "Sigmoid"
  input: "rnn/lstm_cell/add_2"
  attr {
    key: "T"
    value {
      type: DT_FLOAT
    }
  }
}
node {
  name: "rnn/lstm_cell/mul_3"
  op: "Mul"
  input: "rnn/lstm_cell/Sigmoid_3"
  input: "rnn/lstm_cell/add_1"
  attr {
    key: "T"
    value {
      type: DT_FLOAT
    }
  }
}
node {
  name: "rnn/lstm_cell/Sigmoid_4"
  op: "Sigmoid"
  input: "rnn/lstm_cell/split_1"
  attr {
    key: "T"
    value {
      type: DT_FLOAT
    }
  }
}
node {
  name: "rnn/lstm_cell/Softsign_2"
  op: "Softsign"
  input: "rnn/lstm_cell/split_1:1"
  attr {
    key: "T"
    value {
      type: DT_FLOAT
    }
  }
}
node {
  name: "rnn/lstm_cell/mul_4"
  op: "Mul"
  input: "rnn/lstm_cell/Sigmoid_4"
  input: "rnn/lstm_cell/Softsign_2"
  attr {
    key: "T"
    value {
      type: DT_FLOAT
    }
  }
}
node {
  name: "rnn/lstm_cell/add_3"
  op: "Add"
  input: "rnn/lstm_cell/mul_3"
  input: "rnn/lstm_cell/mul_4"
  attr {
    key: "T"
    value {
      type: DT_FLOAT
    }
  }
}
node {
  name: "rnn/lstm_cell/Sigmoid_5"
  op: "Sigmoid"
  input: "rnn/lstm_cell/split_1:3"
  attr {
    key: "T"
    value {
      type: DT_FLOAT
    }
  }
}
node {
  name: "rnn/lstm_cell/Softsign_3"
  op: "Softsign"
  input: "rnn/lstm_cell/add_3"
  attr {
    key: "T"
    value {
      type: DT_FLOAT
    }
  }
}
node {
  name: "rnn/lstm_cell/mul_5"
  op: "Mul"
  input: "rnn/lstm_cell/Sigmoid_5"
  input: "rnn/lstm_cell/Softsign_3"
  attr {
    key: "T"
    value {
      type: DT_FLOAT
    }
  }
}
node {
  name: "rnn/lstm_cell/concat_2/axis"
  op: "Const"
  attr {
    key: "dtype"
    value {
      type: DT_INT32
    }
  }
  attr {
    key: "value"
    value {
      tensor {
        dtype: DT_INT32
        tensor_shape {
        }
        int_val: 1
      }
    }
  }
}
node {
  name: "rnn/lstm_cell/concat_2"
  op: "ConcatV2"
  input: "unstack:2"
  input: "rnn/lstm_cell/mul_5"
  input: "rnn/lstm_cell/concat_2/axis"
  attr {
    key: "N"
    value {
      i: 2
    }
  }
  attr {
    key: "T"
    value {
      type: DT_FLOAT
    }
  }
  attr {
    key: "Tidx"
    value {
      type: DT_INT32
    }
  }
}
node {
  name: "rnn/lstm_cell/MatMul_2"
  op: "MatMul"
  input: "rnn/lstm_cell/concat_2"
  input: "rnn/lstm_cell/kernel/read"
  attr {
    key: "T"
    value {
      type: DT_FLOAT
    }
  }
  attr {
    key: "transpose_a"
    value {
      b: false
    }
  }
  attr {
    key: "transpose_b"
    value {
      b: false
    }
  }
}
node {
  name: "rnn/lstm_cell/BiasAdd_2"
  op: "BiasAdd"
  input: "rnn/lstm_cell/MatMul_2"
  input: "rnn/lstm_cell/bias/read"
  attr {
    key: "T"
    value {
      type: DT_FLOAT
    }
  }
  attr {
    key: "data_format"
    value {
      s: "NHWC"
    }
  }
}
node {
  name: "rnn/lstm_cell/split_2/split_dim"
  op: "Const"
  attr {
    key: "dtype"
    value {
      type: DT_INT32
    }
  }
  attr {
    key: "value"
    value {
      tensor {
        dtype: DT_INT32
        tensor_shape {
        }
        int_val: 1
      }
    }
  }
}
node {
  name: "rnn/lstm_cell/split_2"
  op: "Split"
  input: "rnn/lstm_cell/split_2/split_dim"
  input: "rnn/lstm_cell/BiasAdd_2"
  attr {
    key: "T"
    value {
      type: DT_FLOAT
    }
  }
  attr {
    key: "num_split"
    value {
      i: 4
    }
  }
}
node {
  name: "rnn/lstm_cell/add_4/y"
  op: "Const"
  attr {
    key: "dtype"
    value {
      type: DT_FLOAT
    }
  }
  attr {
    key: "value"
    value {
      tensor {
        dtype: DT_FLOAT
        tensor_shape {
        }
        float_val: 1.0
      }
    }
  }
}
node {
  name: "rnn/lstm_cell/add_4"
  op: "Add"
  input: "rnn/lstm_cell/split_2:2"
  input: "rnn/lstm_cell/add_4/y"
  attr {
    key: "T"
    value {
      type: DT_FLOAT
    }
  }
}
node {
  name: "rnn/lstm_cell/Sigmoid_6"
  op: "Sigmoid"
  input: "rnn/lstm_cell/add_4"
  attr {
    key: "T"
    value {
      type: DT_FLOAT
    }
  }
}
node {
  name: "rnn/lstm_cell/mul_6"
  op: "Mul"
  input: "rnn/lstm_cell/Sigmoid_6"
  input: "rnn/lstm_cell/add_3"
  attr {
    key: "T"
    value {
      type: DT_FLOAT
    }
  }
}
node {
  name: "rnn/lstm_cell/Sigmoid_7"
  op: "Sigmoid"
  input: "rnn/lstm_cell/split_2"
  attr {
    key: "T"
    value {
      type: DT_FLOAT
    }
  }
}
node {
  name: "rnn/lstm_cell/Softsign_4"
  op: "Softsign"
  input: "rnn/lstm_cell/split_2:1"
  attr {
    key: "T"
    value {
      type: DT_FLOAT
    }
  }
}
node {
  name: "rnn/lstm_cell/mul_7"
  op: "Mul"
  input: "rnn/lstm_cell/Sigmoid_7"
  input: "rnn/lstm_cell/Softsign_4"
  attr {
    key: "T"
    value {
      type: DT_FLOAT
    }
  }
}
node {
  name: "rnn/lstm_cell/add_5"
  op: "Add"
  input: "rnn/lstm_cell/mul_6"
  input: "rnn/lstm_cell/mul_7"
  attr {
    key: "T"
    value {
      type: DT_FLOAT
    }
  }
}
node {
  name: "rnn/lstm_cell/Sigmoid_8"
  op: "Sigmoid"
  input: "rnn/lstm_cell/split_2:3"
  attr {
    key: "T"
    value {
      type: DT_FLOAT
    }
  }
}
node {
  name: "rnn/lstm_cell/Softsign_5"
  op: "Softsign"
  input: "rnn/lstm_cell/add_5"
  attr {
    key: "T"
    value {
      type: DT_FLOAT
    }
  }
}
node {
  name: "rnn/lstm_cell/mul_8"
  op: "Mul"
  input: "rnn/lstm_cell/Sigmoid_8"
  input: "rnn/lstm_cell/Softsign_5"
  attr {
    key: "T"
    value {
      type: DT_FLOAT
    }
  }
}
node {
  name: "rnn/lstm_cell/concat_3/axis"
  op: "Const"
  attr {
    key: "dtype"
    value {
      type: DT_INT32
    }
  }
  attr {
    key: "value"
    value {
      tensor {
        dtype: DT_INT32
        tensor_shape {
        }
        int_val: 1
      }
    }
  }
}
node {
  name: "rnn/lstm_cell/concat_3"
  op: "ConcatV2"
  input: "unstack:3"
  input: "rnn/lstm_cell/mul_8"
  input: "rnn/lstm_cell/concat_3/axis"
  attr {
    key: "N"
    value {
      i: 2
    }
  }
  attr {
    key: "T"
    value {
      type: DT_FLOAT
    }
  }
  attr {
    key: "Tidx"
    value {
      type: DT_INT32
    }
  }
}
node {
  name: "rnn/lstm_cell/MatMul_3"
  op: "MatMul"
  input: "rnn/lstm_cell/concat_3"
  input: "rnn/lstm_cell/kernel/read"
  attr {
    key: "T"
    value {
      type: DT_FLOAT
    }
  }
  attr {
    key: "transpose_a"
    value {
      b: false
    }
  }
  attr {
    key: "transpose_b"
    value {
      b: false
    }
  }
}
node {
  name: "rnn/lstm_cell/BiasAdd_3"
  op: "BiasAdd"
  input: "rnn/lstm_cell/MatMul_3"
  input: "rnn/lstm_cell/bias/read"
  attr {
    key: "T"
    value {
      type: DT_FLOAT
    }
  }
  attr {
    key: "data_format"
    value {
      s: "NHWC"
    }
  }
}
node {
  name: "rnn/lstm_cell/split_3/split_dim"
  op: "Const"
  attr {
    key: "dtype"
    value {
      type: DT_INT32
    }
  }
  attr {
    key: "value"
    value {
      tensor {
        dtype: DT_INT32
        tensor_shape {
        }
        int_val: 1
      }
    }
  }
}
node {
  name: "rnn/lstm_cell/split_3"
  op: "Split"
  input: "rnn/lstm_cell/split_3/split_dim"
  input: "rnn/lstm_cell/BiasAdd_3"
  attr {
    key: "T"
    value {
      type: DT_FLOAT
    }
  }
  attr {
    key: "num_split"
    value {
      i: 4
    }
  }
}
node {
  name: "rnn/lstm_cell/add_6/y"
  op: "Const"
  attr {
    key: "dtype"
    value {
      type: DT_FLOAT
    }
  }
  attr {
    key: "value"
    value {
      tensor {
        dtype: DT_FLOAT
        tensor_shape {
        }
        float_val: 1.0
      }
    }
  }
}
node {
  name: "rnn/lstm_cell/add_6"
  op: "Add"
  input: "rnn/lstm_cell/split_3:2"
  input: "rnn/lstm_cell/add_6/y"
  attr {
    key: "T"
    value {
      type: DT_FLOAT
    }
  }
}
node {
  name: "rnn/lstm_cell/Sigmoid_9"
  op: "Sigmoid"
  input: "rnn/lstm_cell/add_6"
  attr {
    key: "T"
    value {
      type: DT_FLOAT
    }
  }
}
node {
  name: "rnn/lstm_cell/mul_9"
  op: "Mul"
  input: "rnn/lstm_cell/Sigmoid_9"
  input: "rnn/lstm_cell/add_5"
  attr {
    key: "T"
    value {
      type: DT_FLOAT
    }
  }
}
node {
  name: "rnn/lstm_cell/Sigmoid_10"
  op: "Sigmoid"
  input: "rnn/lstm_cell/split_3"
  attr {
    key: "T"
    value {
      type: DT_FLOAT
    }
  }
}
node {
  name: "rnn/lstm_cell/Softsign_6"
  op: "Softsign"
  input: "rnn/lstm_cell/split_3:1"
  attr {
    key: "T"
    value {
      type: DT_FLOAT
    }
  }
}
node {
  name: "rnn/lstm_cell/mul_10"
  op: "Mul"
  input: "rnn/lstm_cell/Sigmoid_10"
  input: "rnn/lstm_cell/Softsign_6"
  attr {
    key: "T"
    value {
      type: DT_FLOAT
    }
  }
}
node {
  name: "rnn/lstm_cell/add_7"
  op: "Add"
  input: "rnn/lstm_cell/mul_9"
  input: "rnn/lstm_cell/mul_10"
  attr {
    key: "T"
    value {
      type: DT_FLOAT
    }
  }
}
node {
  name: "rnn/lstm_cell/Sigmoid_11"
  op: "Sigmoid"
  input: "rnn/lstm_cell/split_3:3"
  attr {
    key: "T"
    value {
      type: DT_FLOAT
    }
  }
}
node {
  name: "rnn/lstm_cell/Softsign_7"
  op: "Softsign"
  input: "rnn/lstm_cell/add_7"
  attr {
    key: "T"
    value {
      type: DT_FLOAT
    }
  }
}
node {
  name: "rnn/lstm_cell/mul_11"
  op: "Mul"
  input: "rnn/lstm_cell/Sigmoid_11"
  input: "rnn/lstm_cell/Softsign_7"
  attr {
    key: "T"
    value {
      type: DT_FLOAT
    }
  }
}
node {
  name: "concat/axis"
  op: "Const"
  attr {
    key: "dtype"
    value {
      type: DT_INT32
    }
  }
  attr {
    key: "value"
    value {
      tensor {
        dtype: DT_INT32
        tensor_shape {
        }
        int_val: 0
      }
    }
  }
}
node {
  name: "concat"
  op: "ConcatV2"
  input: "rnn/lstm_cell/mul_2"
  input: "rnn/lstm_cell/mul_5"
  input: "rnn/lstm_cell/mul_8"
  input: "rnn/lstm_cell/mul_11"
  input: "concat/axis"
  attr {
    key: "N"
    value {
      i: 4
    }
  }
  attr {
    key: "T"
    value {
      type: DT_FLOAT
    }
  }
  attr {
    key: "Tidx"
    value {
      type: DT_INT32
    }
  }
}
node {
  name: "concat_1/axis"
  op: "Const"
  attr {
    key: "dtype"
    value {
      type: DT_INT32
    }
  }
  attr {
    key: "value"
    value {
      tensor {
        dtype: DT_INT32
        tensor_shape {
        }
        int_val: 0
      }
    }
  }
}
node {
  name: "concat_1"
  op: "ConcatV2"
  input: "rnn/lstm_cell/add_7"
  input: "rnn/lstm_cell/mul_11"
  input: "concat_1/axis"
  attr {
    key: "N"
    value {
      i: 2
    }
  }
  attr {
    key: "T"
    value {
      type: DT_FLOAT
    }
  }
  attr {
    key: "Tidx"
    value {
      type: DT_INT32
    }
  }
}
library {
}
