node {
  name: "in_0"
  op: "Const"
  attr {
    key: "dtype"
    value {
      type: DT_FLOAT
    }
  }
  attr {
    key: "value"
    value {
      tensor {
        dtype: DT_FLOAT
        tensor_shape {
          dim {
            size: 1
          }
          dim {
            size: 4
          }
          dim {
            size: 5
          }
        }
        tensor_content: "…"
      }
    }
  }
}
node {
  name: "in_0/read"
  op: "Identity"
  input: "in_0"
  attr {
    key: "T"
    value {
      type: DT_FLOAT
    }
  }
  attr {
    key: "_class"
    value {
      list {
        s: "loc:@in_0"
      }
    }
  }
}
node {
  name: "unstack"
  op: "Unpack"
  input: "in_0/read"
  attr {
    key: "T"
    value {
      type: DT_FLOAT
    }
  }
  attr {
    key: "axis"
    value {
      i: 1
    }
  }
  attr {
    key: "num"
    value {
      i: 4
    }
  }
}
node {
  name: "rnn/GRUBlockCellV2ZeroState/Const"
  op: "Const"
  attr {
    key: "dtype"
    value {
      type: DT_INT32
    }
  }
  attr {
    key: "value"
    value {
      tensor {
        dtype: DT_INT32
        tensor_shape {
          dim {
            size: 1
          }
        }
        int_val: 1
      }
    }
  }
}
node {
  name: "rnn/GRUBlockCellV2ZeroState/Const_1"
  op: "Const"
  attr {
    key: "dtype"
    value {
      type: DT_INT32
    }
  }
  attr {
    key: "value"
    value {
      tensor {
        dtype: DT_INT32
        tensor_shape {
          dim {
            size: 1
          }
        }
        int_val: 3
      }
    }
  }
}
node {
  name: "rnn/GRUBlockCellV2ZeroState/concat/axis"
  op: "Const"
  attr {
    key: "dtype"
    value {
      type: DT_INT32
    }
  }
  attr {
    key: "value"
    value {
      tensor {
        dtype: DT_INT32
        tensor_shape {
        }
        int_val: 0
      }
    }
  }
}
node {
  name: "rnn/GRUBlockCellV2ZeroState/concat"
  op: "ConcatV2"
  input: "rnn/GRUBlockCellV2ZeroState/Const"
  input: "rnn/GRUBlockCellV2ZeroState/Const_1"
  input: "rnn/GRUBlockCellV2ZeroState/concat/axis"
  attr {
    key: "N"
    value {
      i: 2
    }
  }
  attr {
    key: "T"
    value {
      type: DT_INT32
    }
  }
  attr {
    key: "Tidx"
    value {
      type: DT_INT32
    }
  }
}
node {
  name: "rnn/GRUBlockCellV2ZeroState/zeros/Const"
  op: "Const"
  attr {
    key: "dtype"
    value {
      type: DT_FLOAT
    }
  }
  attr {
    key: "value"
    value {
      tensor {
        dtype: DT_FLOAT
        tensor_shape {
        }
        float_val: 0.0
      }
    }
  }
}
node {
  name: "rnn/GRUBlockCellV2ZeroState/zeros"
  op: "Fill"
  input: "rnn/GRUBlockCellV2ZeroState/concat"
  input: "rnn/GRUBlockCellV2ZeroState/zeros/Const"
  attr {
    key: "T"
    value {
      type: DT_FLOAT
    }
  }
  attr {
    key: "index_type"
    value {
      type: DT_INT32
    }
  }
}
node {
  name: "rnn/gru_cell/gates/kernel"
  op: "Const"
  attr {
    key: "dtype"
    value {
      type: DT_FLOAT
    }
  }
  attr {
    key: "value"
    value {
      tensor {
        dtype: DT_FLOAT
        tensor_shape {
          dim {
            size: 8
          }
          dim {
            size: 6
          }
        }
        tensor_content: "…"
      }
    }
  }
}
node {
  name: "rnn/gru_cell/gates/kernel/read"
  op: "Identity"
  input: "rnn/gru_cell/gates/kernel"
  attr {
    key: "T"
    value {
      type: DT_FLOAT
    }
  }
}
node {
  name: "rnn/gru_cell/gates/bias"
  op: "Const"
  attr {
    key: "dtype"
    value {
      type: DT_FLOAT
    }
  }
  attr {
    key: "value"
    value {
      tensor {
        dtype: DT_FLOAT
        tensor_shape {
          dim {
            size: 6
          }
        }
        tensor_content: "\000\000\200?\000\000\200?\000\000\200?\000\000\200?\000\000\200?\000\000\200?"
      }
    }
  }
}
node {
  name: "rnn/gru_cell/gates/bias/read"
  op: "Identity"
  input: "rnn/gru_cell/gates/bias"
  attr {
    key: "T"
    value {
      type: DT_FLOAT
    }
  }
}
node {
  name: "rnn/gru_cell/candidate/kernel"
  op: "Const"
  attr {
    key: "dtype"
    value {
      type: DT_FLOAT
    }
  }
  attr {
    key: "value"
    value {
      tensor {
        dtype: DT_FLOAT
        tensor_shape {
          dim {
            size: 8
          }
          dim {
            size: 3
          }
        }
        tensor_content: "…"
      }
    }
  }
}
node {
  name: "rnn/gru_cell/candidate/kernel/read"
  op: "Identity"
  input: "rnn/gru_cell/candidate/kernel"
  attr {
    key: "T"
    value {
      type: DT_FLOAT
    }
  }
}
node {
  name: "rnn/gru_cell/candidate/bias"
  op: "Const"
  attr {
    key: "dtype"
    value {
      type: DT_FLOAT
    }
  }
  attr {
    key: "value"
    value {
      tensor {
        dtype: DT_FLOAT
        tensor_shape {
          dim {
            size: 3
          }
        }
        tensor_content: "\000\000\000\000\000\000\000\000\000\000\000\000"
      }
    }
  }
}
node {
  name: "rnn/gru_cell/candidate/bias/read"
  op: "Identity"
  input: "rnn/gru_cell/candidate/bias"
  attr {
    key: "T"
    value {
      type: DT_FLOAT
    }
  }
}
node {
  name: "rnn/gru_cell/GRUBlockCell"
  op: "GRUBlockCell"
  input: "unstack"
  input: "rnn/GRUBlockCellV2ZeroState/zeros"
  input: "rnn/gru_cell/gates/kernel/read"
  input: "rnn/gru_cell/candidate/kernel/read"
  input: "rnn/gru_cell/gates/bias/read"
  input: "rnn/gru_cell/candidate/bias/read"
  attr {
    key: "T"
    value {
      type: DT_FLOAT
    }
  }
}
node {
  name: "rnn/gru_cell/GRUBlockCell_1"
  op: "GRUBlockCell"
  input: "unstack:1"
  input: "rnn/gru_cell/GRUBlockCell:3"
  input: "rnn/gru_cell/gates/kernel/read"
  input: "rnn/gru_cell/candidate/kernel/read"
  input: "rnn/gru_cell/gates/bias/read"
  input: "rnn/gru_cell/candidate/bias/read"
  attr {
    key: "T"
    value {
      type: DT_FLOAT
    }
  }
}
node {
  name: "rnn/gru_cell/GRUBlockCell_2"
  op: "GRUBlockCell"
  input: "unstack:2"
  input: "rnn/gru_cell/GRUBlockCell_1:3"
  input: "rnn/gru_cell/gates/kernel/read"
  input: "rnn/gru_cell/candidate/kernel/read"
  input: "rnn/gru_cell/gates/bias/read"
  input: "rnn/gru_cell/candidate/bias/read"
  attr {
    key: "T"
    value {
      type: DT_FLOAT
    }
  }
}
node {
  name: "rnn/gru_cell/GRUBlockCell_3"
  op: "GRUBlockCell"
  input: "unstack:3"
  input: "rnn/gru_cell/GRUBlockCell_2:3"
  input: "rnn/gru_cell/gates/kernel/read"
  input: "rnn/gru_cell/candidate/kernel/read"
  input: "rnn/gru_cell/gates/bias/read"
  input: "rnn/gru_cell/candidate/bias/read"
  attr {
    key: "T"
    value {
      type: DT_FLOAT
    }
  }
}
node {
  name: "concat/axis"
  op: "Const"
  attr {
    key: "dtype"
    value {
      type: DT_INT32
    }
  }
  attr {
    key: "value"
    value {
      tensor {
        dtype: DT_INT32
        tensor_shape {
        }
        int_val: 0
      }
    }
  }
}
node {
  name: "concat"
  op: "ConcatV2"
  input: "rnn/gru_cell/GRUBlockCell:3"
  input: "rnn/gru_cell/GRUBlockCell_1:3"
  input: "rnn/gru_cell/GRUBlockCell_2:3"
  input: "rnn/gru_cell/GRUBlockCell_3:3"
  input: "concat/axis"
  attr {
    key: "N"
    value {
      i: 4
    }
  }
  attr {
    key: "T"
    value {
      type: DT_FLOAT
    }
  }
  attr {
    key: "Tidx"
    value {
      type: DT_INT32
    }
  }
}
node {
  name: "concat_1"
  op: "Identity"
  input: "rnn/gru_cell/GRUBlockCell_3:3"
  attr {
    key: "T"
    value {
      type: DT_FLOAT
    }
  }
}
library {
}
