node {
  name: "in_0"
  op: "Const"
  attr {
    key: "dtype"
    value {
      type: DT_FLOAT
    }
  }
  attr {
    key: "value"
    value {
      tensor {
        dtype: DT_FLOAT
        tensor_shape {
          dim {
            size: 1
          }
          dim {
            size: 1
          }
          dim {
            size: 3
          }
        }
        tensor_content: "~^G?L\033M?\236p9?"
      }
    }
  }
}
node {
  name: "in_0/read"
  op: "Identity"
  input: "in_0"
  attr {
    key: "T"
    value {
      type: DT_FLOAT
    }
  }
  attr {
    key: "_class"
    value {
      list {
        s: "loc:@in_0"
      }
    }
  }
}
node {
  name: "unstack"
  op: "Unpack"
  input: "in_0/read"
  attr {
    key: "T"
    value {
      type: DT_FLOAT
    }
  }
  attr {
    key: "axis"
    value {
      i: 1
    }
  }
  attr {
    key: "num"
    value {
      i: 1
    }
  }
}
node {
  name: "rnn/LSTMBlockCellZeroState/Const"
  op: "Const"
  attr {
    key: "dtype"
    value {
      type: DT_INT32
    }
  }
  attr {
    key: "value"
    value {
      tensor {
        dtype: DT_INT32
        tensor_shape {
          dim {
            size: 1
          }
        }
        int_val: 1
      }
    }
  }
}
node {
  name: "rnn/LSTMBlockCellZeroState/Const_1"
  op: "Const"
  attr {
    key: "dtype"
    value {
      type: DT_INT32
    }
  }
  attr {
    key: "value"
    value {
      tensor {
        dtype: DT_INT32
        tensor_shape {
          dim {
            size: 1
          }
        }
        int_val: 2
      }
    }
  }
}
node {
  name: "rnn/LSTMBlockCellZeroState/concat/axis"
  op: "Const"
  attr {
    key: "dtype"
    value {
      type: DT_INT32
    }
  }
  attr {
    key: "value"
    value {
      tensor {
        dtype: DT_INT32
        tensor_shape {
        }
        int_val: 0
      }
    }
  }
}
node {
  name: "rnn/LSTMBlockCellZeroState/concat"
  op: "ConcatV2"
  input: "rnn/LSTMBlockCellZeroState/Const"
  input: "rnn/LSTMBlockCellZeroState/Const_1"
  input: "rnn/LSTMBlockCellZeroState/concat/axis"
  attr {
    key: "N"
    value {
      i: 2
    }
  }
  attr {
    key: "T"
    value {
      type: DT_INT32
    }
  }
  attr {
    key: "Tidx"
    value {
      type: DT_INT32
    }
  }
}
node {
  name: "rnn/LSTMBlockCellZeroState/zeros/Const"
  op: "Const"
  attr {
    key: "dtype"
    value {
      type: DT_FLOAT
    }
  }
  attr {
    key: "value"
    value {
      tensor {
        dtype: DT_FLOAT
        tensor_shape {
        }
        float_val: 0.0
      }
    }
  }
}
node {
  name: "rnn/LSTMBlockCellZeroState/zeros"
  op: "Fill"
  input: "rnn/LSTMBlockCellZeroState/concat"
  input: "rnn/LSTMBlockCellZeroState/zeros/Const"
  attr {
    key: "T"
    value {
      type: DT_FLOAT
    }
  }
  attr {
    key: "index_type"
    value {
      type: DT_INT32
    }
  }
}
node {
  name: "rnn/LSTMBlockCellZeroState/Const_4"
  op: "Const"
  attr {
    key: "dtype"
    value {
      type: DT_INT32
    }
  }
  attr {
    key: "value"
    value {
      tensor {
        dtype: DT_INT32
        tensor_shape {
          dim {
            size: 1
          }
        }
        int_val: 1
      }
    }
  }
}
node {
  name: "rnn/LSTMBlockCellZeroState/Const_5"
  op: "Const"
  attr {
    key: "dtype"
    value {
      type: DT_INT32
    }
  }
  attr {
    key: "value"
    value {
      tensor {
        dtype: DT_INT32
        tensor_shape {
          dim {
            size: 1
          }
        }
        int_val: 2
      }
    }
  }
}
node {
  name: "rnn/LSTMBlockCellZeroState/concat_1/axis"
  op: "Const"
  attr {
    key: "dtype"
    value {
      type: DT_INT32
    }
  }
  attr {
    key: "value"
    value {
      tensor {
        dtype: DT_INT32
        tensor_shape {
        }
        int_val: 0
      }
    }
  }
}
node {
  name: "rnn/LSTMBlockCellZeroState/concat_1"
  op: "ConcatV2"
  input: "rnn/LSTMBlockCellZeroState/Const_4"
  input: "rnn/LSTMBlockCellZeroState/Const_5"
  input: "rnn/LSTMBlockCellZeroState/concat_1/axis"
  attr {
    key: "N"
    value {
      i: 2
    }
  }
  attr {
    key: "T"
    value {
      type: DT_INT32
    }
  }
  attr {
    key: "Tidx"
    value {
      type: DT_INT32
    }
  }
}
node {
  name: "rnn/LSTMBlockCellZeroState/zeros_1/Const"
  op: "Const"
  attr {
    key: "dtype"
    value {
      type: DT_FLOAT
    }
  }
  attr {
    key: "value"
    value {
      tensor {
        dtype: DT_FLOAT
        tensor_shape {
        }
        float_val: 0.0
      }
    }
  }
}
node {
  name: "rnn/LSTMBlockCellZeroState/zeros_1"
  op: "Fill"
  input: "rnn/LSTMBlockCellZeroState/concat_1"
  input: "rnn/LSTMBlockCellZeroState/zeros_1/Const"
  attr {
    key: "T"
    value {
      type: DT_FLOAT
    }
  }
  attr {
    key: "index_type"
    value {
      type: DT_INT32
    }
  }
}
node {
  name: "rnn/lstm_cell/kernel"
  op: "Const"
  attr {
    key: "dtype"
    value {
      type: DT_FLOAT
    }
  }
  attr {
    key: "value"
    value {
      tensor {
        dtype: DT_FLOAT
        tensor_shape {
          dim {
            size: 5
          }
          dim {
            size: 8
          }
        }
        tensor_content: "…"
      }
    }
  }
}
node {
  name: "rnn/lstm_cell/kernel/read"
  op: "Identity"
  input: "rnn/lstm_cell/kernel"
  attr {
    key: "T"
    value {
      type: DT_FLOAT
    }
  }
}
node {
  name: "rnn/lstm_cell/bias"
  op: "Const"
  attr {
    key: "dtype"
    value {
      type: DT_FLOAT
    }
  }
  attr {
    key: "value"
    value {
      tensor {
        dtype: DT_FLOAT
        tensor_shape {
          dim {
            size: 8
          }
        }
        tensor_content: "…"
      }
    }
  }
}
node {
  name: "rnn/lstm_cell/bias/read"
  op: "Identity"
  input: "rnn/lstm_cell/bias"
  attr {
    key: "T"
    value {
      type: DT_FLOAT
    }
  }
}
node {
  name: "rnn/lstm_cell/zeros"
  op: "Const"
  attr {
    key: "dtype"
    value {
      type: DT_FLOAT
    }
  }
  attr {
    key: "value"
    value {
      tensor {
        dtype: DT_FLOAT
        tensor_shape {
          dim {
            size: 2
          }
        }
        float_val: 0.0
      }
    }
  }
}
node {
  name: "rnn/lstm_cell/LSTMBlockCell"
  op: "LSTMBlockCell"
  input: "unstack"
  input: "rnn/LSTMBlockCellZeroState/zeros"
  input: "rnn/LSTMBlockCellZeroState/zeros_1"
  input: "rnn/lstm_cell/kernel/read"
  input: "rnn/lstm_cell/zeros"
  input: "rnn/lstm_cell/zeros"
  input: "rnn/lstm_cell/zeros"
  input: "rnn/lstm_cell/bias/read"
  attr {
    key: "T"
    value {
      type: DT_FLOAT
    }
  }
  attr {
    key: "cell_clip"
    value {
      f: -1.0
    }
  }
  attr {
    key: "forget_bias"
    value {
      f: 1.0
    }
  }
  attr {
    key: "use_peephole"
    value {
      b: false
    }
  }
}
node {
  name: "concat"
  op: "Identity"
  input: "rnn/lstm_cell/LSTMBlockCell:6"
  attr {
    key: "T"
    value {
      type: DT_FLOAT
    }
  }
}
node {
  name: "concat_1/axis"
  op: "Const"
  attr {
    key: "dtype"
    value {
      type: DT_INT32
    }
  }
  attr {
    key: "value"
    value {
      tensor {
        dtype: DT_INT32
        tensor_shape {
        }
        int_val: 0
      }
    }
  }
}
node {
  name: "concat_1"
  op: "ConcatV2"
  input: "rnn/lstm_cell/LSTMBlockCell:1"
  input: "rnn/lstm_cell/LSTMBlockCell:6"
  input: "concat_1/axis"
  attr {
    key: "N"
    value {
      i: 2
    }
  }
  attr {
    key: "T"
    value {
      type: DT_FLOAT
    }
  }
  attr {
    key: "Tidx"
    value {
      type: DT_INT32
    }
  }
}
library {
}
